…
onv_dim, 3, 4, batch_norm=False) def forward(self, x): out = self.fc(x) out = out.view(-1, self.conv_dim*4, 4, 4) # ( out = F.relu(self.t_conv1(out)) out = F.relu(self.t_conv2(out)) out = self.t_conv3(out) out = F.tanh(out) return out  Building the models conv_dim = 32 z_size = 100 D = Discriminator(conv_dim) G = Generator(z_size=z_size, conv_dim=conv_dim) print(D) print() print(G) train_on_gpu = torch.cuda.is_available() if train_on_gpu: G.cuda() D.cuda() print('GPU available for training. Models moved to GPU') else: print('Training on CPU.')  Output :\n Discriminator( (conv1): Sequential( (0): Conv2d(3, 32, kernel_size=(4, 4), stride=(2, 2), padding=(1, 1), bias=False) ) (conv2): Sequential( (0): Conv2d(32, 64, kernel_size=(4, 4), stride=(2, 2), padding=(1, 1), bias=False) (1): BatchNorm2d(64, eps=1e-05, momentum=0.1, affine=True, track_running_stats=True) ) (conv3): Sequential( (0): Conv2d(64, 128, kernel_size=(4, 4), stride=(2, 2), padding=(1, 1), bias=False) (1): BatchNorm2d(128, eps=1e-05, momentum=0.1, affine=True, track_running_stats=True) ) (fc): Linear(in_features=2048, out_features=1, bias=True) ) Generator( (fc): Linear(in_features=100, out_features=2048, bias=True) (t_conv1): Sequential( (0): ConvTranspose2d(128, 64, kernel_size=(4, 4), stride=(2, 2), padding=(1, 1), bias=False) (1): BatchNorm2d(64, eps=1e-05, momentum=0.1, affine=True, track_running_stats=True) ) (t_conv2): Sequential( (0): ConvTranspose2d(64, 32, kernel_size=(4, 4), stride=(2, 2), padding=(1, 1), bias=False) (1): BatchNorm2d(32, eps=1e-05, momentum=0.1, affine=True, track_running_stats=True) ) (t_conv3): Sequential( (0): ConvTranspose2d(32, 3, kernel_size=(4, 4), stride=(2, 2), padding=(1, 1), bias=False) ) )  Loss Loss and training loop is exactly same as Linear GANs. we scale the images in range -1 to 1 inside training loop. Check GAN2 and GAN3 is you dont understand about the loss and training loop.\ndef real_loss(D_out, smooth=False): batch_size = D_out.size(0) if smooth: labels = torch.ones(batch_size)*0.9 else: labels = tor
…
