…
&lt;/code&gt;&lt;/pre&gt;

&lt;h2 id=&#34;building-the-models&#34;&gt;Building the models&lt;/h2&gt;

&lt;pre&gt;&lt;code class=&#34;language-python&#34;&gt;conv_dim = 32
z_size = 100

D = Discriminator(conv_dim)
G = Generator(z_size=z_size, conv_dim=conv_dim)

print(D)
print()
print(G)

train_on_gpu = torch.cuda.is_available()

if train_on_gpu:
    G.cuda()
    D.cuda()
    print(&#39;GPU available for training. Models moved to GPU&#39;)
else:
    print(&#39;Training on CPU.&#39;)

&lt;/code&gt;&lt;/pre&gt;

&lt;p&gt;Output :&lt;/p&gt;

&lt;pre&gt;&lt;code&gt;
Discriminator(
  (conv1): Sequential(
    (0): Conv2d(3, 32, kernel_size=(4, 4), stride=(2, 2), padding=(1, 1), bias=False)
  )
  (conv2): Sequential(
    (0): Conv2d(32, 64, kernel_size=(4, 4), stride=(2, 2), padding=(1, 1), bias=False)
    (1): BatchNorm2d(64, eps=1e-05, momentum=0.1, affine=True, track_running_stats=True)
  )
  (conv3): Sequential(
    (0): Conv2d(64, 128, kernel_size=(4, 4), stride=(2, 2), padding=(1, 1), bias=False)
    (1): BatchNorm2d(128, eps=1e-05, momentum=0.1, affine=True, track_running_stats=True)
  )
  (fc): Linear(in_features=2048, out_features=1, bias=True)
)



Generator(
  (fc): Linear(in_features=100, out_features=2048, bias=True)
  (t_conv1): Sequential(
    (0): ConvTranspose2d(128, 64, kernel_size=(4, 4), stride=(2, 2), padding=(1, 1), bias=False)
    (1): BatchNorm2d(64, eps=1e-05, momentum=0.1, affine=True, track_running_stats=True)
  )
  (t_conv2): Sequential(
    (0): ConvTranspose2d(64, 32, kernel_size=(4, 4), stride=(2, 2), padding=(1, 1), bias=False)
    (1): BatchNorm2d(32, eps=1e-05, momentum=0.1, affine=True, track_running_stats=True)
  )
  (t_conv3): Sequential(
    (0): ConvTranspose2d(32, 3, kernel_size=(4, 4), stride=(2, 2), padding=(1, 1), bias=False)
  )
)
&lt;/code&gt;&lt;/pre&gt;

&lt;h2 id=&#34;loss&#34;&gt;Loss&lt;/h2&gt;

&lt;p&gt;Loss and training loop is exactly same as Linear GANs. we scale the images in range -1 to 1 inside training loop.
Check &lt;a href=&#34;https://shangeth.github.io/post/gan-2/&#34; target=&#34;_blank&#34;&gt;GAN2&lt;/a&gt; and &lt;a href=&#34;https://shangeth.github.io/post/gan-3/&#34; target=&#34;_blank&#34;&gt;GAN3&lt;/a&gt; is you dont understand about the loss and training loop.&lt;/p&gt;
…
